…
in.py --algo ppo --env MiniGrid-GridCity-4S30-v0 --model GridCity --save-interval 10 --recurrence=8 --text --tb

Namespace(algo='ppo', batch_size=256, clip_eps=0.2, difficulty=1, discount=0.99, entropy_coef=0.01, env='MiniGrid-GridCity-4S30-v0', epochs=4, frames=10000000, frames_per_proc=None, gae_lambda=0.95, log_interval=1, lr=0.0007, max_grad_norm=0.5, mem=True, model='GridCity', optim_alpha=0.99, optim_eps=1e-05, procs=16, recurrence=8, save_interval=10, seed=1, tb=True, text=True, value_loss_coef=0.5)

Model successfully created

ACModel(
  (memory_rnn): LSTMCell(75, 75)
  (word_embedding): Embedding(500, 32)
  (text_rnn): GRU(32, 128, batch_first=True)
  (actor): Sequential(
    (0): Linear(in_features=203, out_features=64, bias=True)
    (1): Tanh()
    (2): Linear(in_features=64, out_features=4, bias=True)
  )
  (critic): Sequential(
    (0): Linear(in_features=203, out_features=64, bias=True)
    (1): Tanh()
    (2): Linear(in_features=64, out_features=1, bias=True)
  )
)

scripts/train.py --algo ppo --env MiniGrid-GridCity-4S30-v0 --model GridCity --save-interval 10 --recurrence=8 --text --tb

Namespace(algo='ppo', batch_size=256, clip_eps=0.2, difficulty=1, discount=0.99, entropy_coef=0.01, env='MiniGrid-GridCity-4S30-v0', epochs=4, frames=10000000, frames_per_proc=None, gae_lambda=0.95, log_interval=1, lr=0.0007, max_grad_norm=0.5, mem=True, model='GridCity', optim_alpha=0.99, optim_eps=1e-05, procs=16, recurrence=8, save_interval=10, seed=1, tb=True, text=True, value_loss_coef=0.5)

Model successfully created

ACModel(
  (memory_rnn): LSTMCell(75, 75)
  (word_embedding): Embedding(500, 32)
  (text_rnn): GRU(32, 128, batch_first=True)
  (actor): Sequential(
    (0): Linear(in_features=203, out_features=64, bias=True)
    (1): Tanh()
    (2): Linear(in_features=64, out_features=4, bias=True)
  )
  (critic): Sequential(
    (0): Linear(in_features=203, out_features=64, bias=True)
    (1): Tanh()
    (2): Linear(in_features=64, out_features=1, bias=True)
  )
)

CUDA available: True

scripts/train.py --algo ppo --env MiniGrid-GridCity-4S30-v0 --model GridCity --save-interval 10 --recurrence=8 --text --tb

Namespace(algo='ppo', batch_size=256, clip_eps=0.2, difficulty=1, discount=0.99, entropy_coef=0.01, env='MiniGrid-GridCity-4S30-v0', epochs=4, frames=10000000, frames_per_proc=None, gae_lambda=0.95, log_interval=1, lr=0.0007, max_grad_norm=0.5, mem=True, model='GridCity', optim_alpha=0.99, optim_eps=1e-05, procs=16, recurrence=8, save_interval=10, seed=1, tb=True, text=True, value_loss_coef=0.5)

Model successfully created

ACModel(
  (memory_rnn): LSTMCell(75, 75)
  (word_embedding): Embedding(500, 32)
  (text_rnn): GRU(32, 128, batch_first=True)
  (actor): Sequential(
    (0): Linear(in_features=203, out_features=64, bias=True)
    (1): Tanh()
    (2): Linear(in_features=64, out_features=4, bias=True)
  )
  (critic): Sequential(
    (0): Linear(in_features=203, out_features=64, bias=True)
    (1): Tanh()
    (2): Linear(in_features=64, out_features=1, bias=True)
  )
)

CUDA available: True

U 1 | F 002048 | FPS 0743 | D 3 | Difficulty 1 | rR:μσmM 0.20 0.40 0.00 1.00 | F:μσmM 3.6 3.1 1.0 18.0 | H 1.366 | V 0.168 | pL -0.037 | vL 0.089 | grad 0.238
U 2 | F 004096 | FPS 0770 | D 5 | Difficulty 1 | rR:μσmM 0.23 0.42 0.00 1.00 | F:μσmM 3.6 3.4 1.0 27.0 | H 1.344 | V 0.159 | pL -0.051 | vL 0.082 | grad 0.245
U 3 | F 006144 | FPS 0802 | D 8 | Difficulty 1 | rR:μσmM 0.27 0.44 0.00 1.00 | F:μσmM 3.2 2.7 1.0 18.0 | H 1.321 | V 0.219 | pL -0.034 | vL 0.089 | grad 0.323
…
