…
nv MiniGrid-GridCity-4S30Static-v0 --model GridCityTest --save-interval 10 --recurrence=8 --text --tb

Namespace(algo='ppo', batch_size=256, clip_eps=0.2, difficulty=1, discount=0.99, entropy_coef=0.01, env='MiniGrid-GridCity-4S30Static-v0', epochs=4, frames=10000000, frames_per_proc=None, gae_lambda=0.95, log_interval=1, lr=0.0007, max_grad_norm=0.5, mem=True, model='GridCityTest', optim_alpha=0.99, optim_eps=1e-05, procs=16, recurrence=8, save_interval=10, seed=1, tb=True, text=True, value_loss_coef=0.5)

Model successfully created

ACModel(
  (memory_rnn): LSTMCell(75, 75)
  (word_embedding): Embedding(500, 32)
  (text_rnn): GRU(32, 128, batch_first=True)
  (actor): Sequential(
    (0): Linear(in_features=203, out_features=64, bias=True)
    (1): Tanh()
    (2): Linear(in_features=64, out_features=4, bias=True)
  )
  (critic): Sequential(
    (0): Linear(in_features=203, out_features=64, bias=True)
    (1): Tanh()
    (2): Linear(in_features=64, out_features=1, bias=True)
  )
)

CUDA available: True

U 1 | F 002048 | FPS 0687 | D 3 | Difficulty 1 | rR:μσmM 0.01 0.11 0.00 0.98 | F:μσmM 3.7 3.2 1.0 20.0 | H 1.358 | V 0.034 | pL 0.088 | vL 0.014 | grad 0.128
U 2 | F 004096 | FPS 0862 | D 5 | Difficulty 1 | rR:μσmM 0.03 0.17 0.00 0.98 | F:μσmM 4.4 4.0 1.0 28.0 | H 1.315 | V 0.058 | pL -0.015 | vL 0.029 | grad 0.113
U 3 | F 006144 | FPS 0827 | D 8 | Difficulty 1 | rR:μσmM 0.02 0.15 0.00 0.98 | F:μσmM 5.0 4.5 1.0 34.0 | H 1.238 | V 0.061 | pL -0.005 | vL 0.027 | grad 0.149
…
scripts/train.py --algo ppo --env MiniGrid-GridCity-4S30Static-v0 --model GridCityTest --save-interval 10 --recurrence=8 --text --tb

Namespace(algo='ppo', batch_size=256, clip_eps=0.2, difficulty=1, discount=0.99, entropy_coef=0.01, env='MiniGrid-GridCity-4S30Static-v0', epochs=4, frames=10000000, frames_per_proc=None, gae_lambda=0.95, log_interval=1, lr=0.0007, max_grad_norm=0.5, mem=True, model='GridCityTest', optim_alpha=0.99, optim_eps=1e-05, procs=16, recurrence=8, save_interval=10, seed=1, tb=True, text=True, value_loss_coef=0.5)

Model successfully loaded

ACModel(
  (memory_rnn): LSTMCell(75, 75)
  (word_embedding): Embedding(500, 32)
  (text_rnn): GRU(32, 128, batch_first=True)
  (actor): Sequential(
    (0): Linear(in_features=203, out_features=64, bias=True)
    (1): Tanh()
    (2): Linear(in_features=64, out_features=4, bias=True)
  )
  (critic): Sequential(
    (0): Linear(in_features=203, out_features=64, bias=True)
    (1): Tanh()
    (2): Linear(in_features=64, out_features=1, bias=True)
  )
)

CUDA available: True

U 471 | F 964608 | FPS 0871 | D 2 | Difficulty 1 | rR:μσmM 0.98 0.01 0.95 0.99 | F:μσmM 6.5 1.9 4.0 16.0 | H 0.557 | V 0.953 | pL 0.020 | vL 0.000 | grad 0.021
scripts/train.py --algo ppo --env MiniGrid-GridCity-4S30Static-v0 --model GridCityTest --save-interval 10 --recurrence=8 --text --tb

Namespace(algo='ppo', batch_size=256, clip_eps=0.2, difficulty=1, discount=0.99, entropy_coef=0.01, env='MiniGrid-GridCity-4S30Static-v0', epochs=4, frames=10000000, frames_per_proc=None, gae_lambda=0.95, log_interval=1, lr=0.0007, max_grad_norm=0.5, mem=True, model='GridCityTest', optim_alpha=0.99, optim_eps=1e-05, procs=16, recurrence=8, save_interval=10, seed=1, tb=True, text=True, value_loss_coef=0.5)

Model successfully loaded

ACModel(
  (memory_rnn): LSTMCell(75, 75)
  (word_embedding): Embedding(500, 32)
  (text_rnn): GRU(32, 128, batch_first=True)
  (actor): Sequential(
    (0): Linear(in_features=203, out_features=64, bias=True)
    (1): Tanh()
    (2): Linear(in_features=64, out_features=4, bias=True)
  )
  (critic): Sequential(
    (0): Linear(in_features=203, out_features=64, bias=True)
    (1): Tanh()
    (2): Linear(in_features=64, out_features=1, bias=True)
  )
)

CUDA available: True

U 471 | F 964608 | FPS 0876 | D 2 | Difficulty 1 | rR:μσmM 0.98 0.01 0.95 0.99 | F:μσmM 6.5 1.9 4.0 16.0 | H 0.557 | V 0.953 | pL 0.020 | vL 0.000 | grad 0.021
U 472 | F 966656 | FPS 1001 | D 4 | Difficulty 2 | rR:μσmM 0.98 0.01 0.94 0.99 | F:μσmM 7.2 2.6 4.0 19.0 | H 0.510 | V 0.941 | pL -0.002 | vL 0.000 | grad 0.014
U 473 | F 968704 | FPS 0979 | D 6 | Difficulty 3 | rR:μσmM 0.98 0.01 0.95 0.99 | F:μσmM 6.9 2.2 4.0 16.0 | H 0.512 | V 0.947 | pL -0.002 | vL 0.000 | grad 0.015
…
