…
ers/mandanasamiei/PycharmProjects/torch-rl/scripts/train.py --algo ppo --env MiniGrid-GridCity-4S30-v0 --model GridCity --save-interval 10

Namespace(algo='ppo', batch_size=256, clip_eps=0.2, discount=0.99, entropy_coef=0.01, env='MiniGrid-GridCity-4S30-v0', epochs=4, frames=10000000, frames_per_proc=None, gae_lambda=0.95, log_interval=1, lr=0.0007, max_grad_norm=0.5, mem=False, model='GridCity', optim_alpha=0.99, optim_eps=1e-05, procs=16, recurrence=1, save_interval=10, seed=1, tb=False, text=False, value_loss_coef=0.5)

Model successfully created

ACModel(
  (image_conv): Sequential(
    (0): Conv2d(3, 16, kernel_size=(2, 2), stride=(1, 1))
    (1): ReLU()
    (2): MaxPool2d(kernel_size=(2, 2), stride=(2, 2), padding=0, dilation=1, ceil_mode=False)
    (3): Conv2d(16, 64, kernel_size=(2, 2), stride=(1, 1))
    (4): ReLU()
  )
  (actor): Sequential(
    (0): Linear(in_features=64, out_features=64, bias=True)
    (1): Tanh()
    (2): Linear(in_features=64, out_features=7, bias=True)
  )
  (critic): Sequential(
    (0): Linear(in_features=64, out_features=64, bias=True)
    (1): Tanh()
    (2): Linear(in_features=64, out_features=1, bias=True)
  )
)

CUDA available: False

U 1 | F 002048 | FPS 0774 | D 2 | rR:μσmM 0.13 0.33 0.00 1.00 | F:μσmM 2.2 1.7 1.0 14.0 | H 1.768 | V 0.142 | pL -0.075 | vL 0.224 | ∇ 0.560
U 2 | F 004096 | FPS 0725 | D 5 | rR:μσmM 0.15 0.36 0.00 1.00 | F:μσmM 2.3 1.8 1.0 18.0 | H 1.741 | V 0.159 | pL -0.053 | vL 0.112 | ∇ 0.448
U 3 | F 006144 | FPS 0820 | D 7 | rR:μσmM 0.19 0.39 0.00 1.00 | F:μσmM 2.5 1.9 1.0 13.0 | H 1.717 | V 0.167 | pL -0.030 | vL 0.080 | ∇ 0.414
…
/Users/mandanasamiei/PycharmProjects/torch-rl/scripts/train.py --algo ppo --env MiniGrid-GridCity-4S30-v0 --difficulty 2 --model GridCity --save-interval 10

Namespace(algo='ppo', batch_size=256, clip_eps=0.2, difficulty='2', discount=0.99, entropy_coef=0.01, env='MiniGrid-GridCity-4S30-v0', epochs=4, frames=10000000, frames_per_proc=None, gae_lambda=0.95, log_interval=1, lr=0.0007, max_grad_norm=0.5, mem=False, model='GridCity', optim_alpha=0.99, optim_eps=1e-05, procs=16, recurrence=1, save_interval=10, seed=1, tb=False, text=False, value_loss_coef=0.5)

Model successfully loaded

ACModel(
  (image_conv): Sequential(
    (0): Conv2d(3, 16, kernel_size=(2, 2), stride=(1, 1))
    (1): ReLU()
    (2): MaxPool2d(kernel_size=(2, 2), stride=(2, 2), padding=0, dilation=1, ceil_mode=False)
    (3): Conv2d(16, 64, kernel_size=(2, 2), stride=(1, 1))
    (4): ReLU()
  )
  (actor): Sequential(
    (0): Linear(in_features=64, out_features=64, bias=True)
    (1): Tanh()
    (2): Linear(in_features=64, out_features=7, bias=True)
  )
  (critic): Sequential(
    (0): Linear(in_features=64, out_features=64, bias=True)
    (1): Tanh()
    (2): Linear(in_features=64, out_features=1, bias=True)
  )
)

CUDA available: False

/Users/mandanasamiei/PycharmProjects/torch-rl/scripts/train.py --algo ppo --env MiniGrid-GridCity-4S30-v0 --difficulty 2 --model GridCity --save-interval 10

Namespace(algo='ppo', batch_size=256, clip_eps=0.2, difficulty=2, discount=0.99, entropy_coef=0.01, env='MiniGrid-GridCity-4S30-v0', epochs=4, frames=10000000, frames_per_proc=None, gae_lambda=0.95, log_interval=1, lr=0.0007, max_grad_norm=0.5, mem=False, model='GridCity', optim_alpha=0.99, optim_eps=1e-05, procs=16, recurrence=1, save_interval=10, seed=1, tb=False, text=False, value_loss_coef=0.5)

Model successfully loaded

ACModel(
  (image_conv): Sequential(
    (0): Conv2d(3, 16, kernel_size=(2, 2), stride=(1, 1))
    (1): ReLU()
    (2): MaxPool2d(kernel_size=(2, 2), stride=(2, 2), padding=0, dilation=1, ceil_mode=False)
    (3): Conv2d(16, 64, kernel_size=(2, 2), stride=(1, 1))
    (4): ReLU()
  )
  (actor): Sequential(
    (0): Linear(in_features=64, out_features=64, bias=True)
    (1): Tanh()
    (2): Linear(in_features=64, out_features=7, bias=True)
  )
  (critic): Sequential(
    (0): Linear(in_features=64, out_features=64, bias=True)
    (1): Tanh()
    (2): Linear(in_features=64, out_features=1, bias=True)
  )
)

CUDA available: False

U 351 | F 718848 | FPS 1522 | D 1 | rR:μσmM 0.44 0.49 0.00 1.00 | F:μσmM 10.9 17.8 1.0 120.0 | H 1.307 | V 0.418 | pL 0.098 | vL 0.067 | ∇ 0.298
U 352 | F 720896 | FPS 1621 | D 2 | rR:μσmM 0.44 0.48 0.00 1.00 | F:μσmM 16.1 26.2 1.0 171.0 | H 1.307 | V 0.361 | pL 0.028 | vL 0.057 | ∇ 0.286
U 353 | F 722944 | FPS 1789 | D 3 | rR:μσmM 0.38 0.47 0.00 1.00 | F:μσmM 26.0 54.0 1.0 300.0 | H 1.341 | V 0.296 | pL 0.031 | vL 0.035 | ∇ 0.212
…
